data.pt (torch, 5418 bytes, 6 tensors)

l1.weight f4 [8, 54]
0.63491267 0.1889881 0.48642933 -0.17485225 0.120752536 -0.14924017 0.4843441 0.4060266
0.8386302 0.18367015 -0.20305726 -0.2563437 0.32317623 -0.1079251 0.07366423 -0.34275183
-0.18548295 -0.14721154 0.27542585 -0.3269155 0.44321793 -0.42547852 -0.39380968 -0.7528825
0.20813091 -0.21221757 0.3773341 -0.28138262 0.32450226 -0.25556082 -0.19156872 -0.084472544
0.4051417 0.4006523 -0.05643119 -0.2921335 0.097313136 0.6400787 0.40015483 0.60334426
-0.105622835 0.39452446 0.08082415 0.011169243 0.17567442 -0.036615293 0.9884221 0.36108676
0.17059647 0.3384966 -0.2815139 0.1512982 0.4955237 0.4213254 0.36995935 0.35633805
-0.4094012 0.19221549 0.24160923 -0.40670836 -0.023532646 -0.13035901 -0.4713927 -0.11002071
0.4127132 -0.2708584 0.3419413 -0.32126814 0.15535992 -0.22337322 0.465531 -0.38227865
0.5073624 0.5973776 0.4617174 0.5567429 0.6905061 0.37399393 -0.13242523 0.28012094
0.3747053 0.30458695 0.3424461 0.33682293 -0.25138533 -0.12284218 0.28690138 -0.59142804
0.19484173 -0.067213796 0.30494198 -0.50339645 -0.003051571 -0.013873607 -0.31441945 0.44023365
-0.25039053 0.1508318 -0.26304972 0.23419653 0.7582567 0.34946328 0.361122 0.53824437
-0.23163265 0.40700716 -0.033096798 0.15034883 0.18141143 0.4132622 0.70482635 0.38237298
0.4272533 -0.40159905 0.24928866 0.37260643 0.007657056 0.5020887 0.5076128 -0.24224511
0.6491032 -0.18662521 0.42113873 -0.23603395 0.48275518 -0.4017085 0.2656747 0.55558676
0.18442918 0.62337303 0.56106275 0.4648797 -0.041857492 0.44359654 0.13041937 0.4358026
0.15999272 0.45104852 -0.4743245 -0.4146553 -0.103654444 0.51332724 0.4592901 -0.09873545
0.12232156 0.097293444 0.3399619 0.4103905 -0.3238664 -0.18712083 -0.19507426 0.2843328
-0.067646176 0.45418617 -0.05336526 0.04335375 0.24333093 0.086774416 -0.14346367 0.03428609
0.22712798 0.39683235 0.40641257 -0.12527077 -0.4317133 -0.31149632 -0.20335664 0.8250188
-0.13713191 -0.20877738 -0.30273145 -0.31369498 -0.3107614 -0.20145835 0.047765117 -0.023074463
-0.09078197 -0.014572616 -0.16937487 0.8566815 0.41794637 -0.44279078 0.2743814 -0.47151783
-0.46755797 -0.4898023 -0.051129974 -0.23965117 0.26317424 -0.37747046 0.32464725 -0.23169708
0.66687113 -0.023292214 0.24291098 -0.5179474 0.02040357 -0.110832356 0.40240848 -0.39650732
-0.1516082 -0.11655529 0.5535887 0.492637 -0.09823345 -0.0035454205 -0.4272816 -0.10664461
0.48920494 0.45734078 0.13342623 0.44455826 0.023776857 0.39535776 -0.15805544 0.28829142
-0.23202226 -0.32955605 0.26387525 0.44451287 0.46870363 -0.18721087 0.37290782 0.27177754
0.39448225 0.42559478 0.49674615 0.4667125 -0.0089100925 0.4725331 -0.32456076 0.42523938
0.31631845 -0.18019451 -0.23891306 0.44705418 -0.220053 0.573543 0.58223444 0.7031377
0.50495034 0.4709219 -0.46846852 -0.24588674 -0.24682078 -0.4281818 -0.068440735 0.24989928
-0.10180697 0.32897845 -0.15210252 0.54021335 -0.27223414 0.21322402 0.2364832 0.29746225
00000000: a389 223f 1986 413e 440d f93e 780c 33be
00000010: 1b4d f73d 6ad2 18be f3fb f73e b8e2 cf3e
00000020: 78b0 563f 0714 3c3e 3eee 4fbe 7b3f 83be
00000030: 5b77 a53e d607 ddbd 46dd 963d 2b7d afbe
00000040: 3eef 3dbe 9fbe 16be 9e04 8d3e 7861 a7be
00000050: 76ed e23e 52d8 d9be 6ca1 c9be e8bc 40bf
00000060: 4520 553e 904f 59be ef31 c13e 6211 90be
00000070: 2925 a63e ded8 82be 972a 44be f1ff acbd
00000080: bc6e cf3e 4c22 cd3e 6424 67bd 8692 95be
00000090: 1c4c c73d 33dc 233f 18e1 cc3e c574 1a3f
000000a0: c950 d8bd 1cff c93e 2287 a53d 33ff 363c
000000b0: ffe3 333e ebf9 15bd 3b09 7d3f 5de0 b83e
000000c0: d7b0 2e3e 6d4f ad3e 9722 90be eaed 1a3e
000000d0: 48b5 fd3e f6b7 d73e 506b bd3e f171 b63e
000000e0: 099d d1be 23d4 443e 6968 773e 143c d0be
000000f0: 89c7 c0bc d57c 05be 625a f1be 8a52 e1bd
00000100: 254f d33e f4ad 8abe ee12 af3e 427d a4be
00000110: ac16 1f3e f3bb 64be 145a ee3e 07ba c3be
00000120: 81e2 013f bded 183f 3966 ec3e b486 0e3f
00000130: 02c5 303f 227c bf3e 7b9a 07be 036c 8f3e
00000140: 60d9 bf3e d2f2 9b3e 1855 af3e 0e74 ac3e
00000150: 94b5 80be ae94 fbbd bde4 923e d467 17bf
00000160: 9784 473e 63a7 89bd 5b21 9c3e 97de 00bf
00000170: defc 47bb 204e 63bc 96fb a0be 4e66 e13e
00000180: 3033 80be a773 1a3e 74ae 86be 37d1 6f3e
00000190: 1c1d 423f daec b23e fce4 b83e 62ca 093f
000001a0: 1c31 6dbe 3e63 d03e 8290 07bd 0bf5 193e
000001b0: ebc3 393e 1a97 d33e 806f 343f 64c6 c33e
000001c0: f2c0 da3e 649e cdbe 8745 7f3e 45c6 be3e
000001d0: 0be8 fa3b e388 003f eaf2 013f 1a0f 78be
000001e0: a12b 263f ae1a 3fbe 7f9f d73e e2b2 71be
000001f0: b02b f73e bdac cdbe 8406 883e ef3a 0e3f
00000200: 01db 3c3e 6095 1f3f cfa1 0f3f b604 ee3e
00000210: c372 2bbd 161f e33e a88c 053e 8521 df3e
00000220: 22d5 233e d5ef e63e a9da f2be b34d d4be
00000230: c848 d4bd 6a69 033f 1228 eb3e d035 cabd
00000240: ba83 fa3d c941 c73d 7c0f ae3e b41e d23e
00000250: d1d1 a5be 9a9c 3fbe 8cc1 47be 1294 913e
00000260: 148a 8abd 178b e83e 8895 5abd b493 313d
00000270: be2b 793e c9b6 b13d 24e8 12be 926f 0c3d
00000280: 3d94 683e 9c2d cb3e 4f15 d03e fb46 00be
00000290: 8709 ddbe 727c 9fbe b93c 50be 6f34 533f
000002a0: 4f6c 0cbe bdc9 55be 9eff 9abe a19c a0be
000002b0: 1e1c 9fbe 194b 4ebe 5ba5 433d a806 bdbc
000002c0: e6eb b9bd fbc1 6ebc 9b70 2dbe 7b4f 5b3f
000002d0: 11fd d53e 79b5 e2be b87b 8c3e c96a f1be
000002e0: c263 efbe 5ec7 fabe aa6d 51bd 1e67 75be
000002f0: c6be 863e cf43 c1be 2a38 a63e 0042 6dbe
00000300: 11b8 2a3f 50cf bebc a8bd 783e 3398 04bf
00000310: 6325 a73c 13fc e2bd 7c08 ce3e 0203 cbbe
00000320: 2e3f 1bbe 8ab4 eebd fdb7 0d3f eb3a fc3e
00000330: 9e2e c9bd 495a 68bb a7c4 dabe 7d68 dabd
00000340: 1279 fa3e 9228 ea3e e3a0 083e 249d e33e
00000350: afc7 c23c 556c ca3e 49d9 21be ef9a 933e
00000360: 3e97 6dbe 92bb a8be a81a 873e 3197 e33e
00000370: ecf9 ef3e 35b4 3fbe c6ed be3e 6d26 8b3e
00000380: 94f9 c93e 8fe7 d93e 8355 fe3e f1f4 ee3e
00000390: a3fb 11bc dcef f13e d42c a6be fab8 d93e
000003a0: 7ef4 a13e e984 38be a0a5 74be 49e4 e43e
000003b0: 9355 61be b7d3 123f 510d 153f d500 343f
000003c0: 6d44 013f ad1c f13e 1bdb efbe bcc9 7bbe
000003d0: 96be 7cbe a53a dbbe a82a 8cbd 99e5 7f3e
000003e0: 2c80 d0bd dd6f a83e c3c0 1bbe 6c4b 0a3f
000003f0: 4662 8bbe 6657 5a3e a728 723e f94c 983e

l1.bias f4 [8]
0.64136106 0.58358777 0.4014106 0.614432 0.8216258 0.23863438 0.2996241 0.53730685
00000000: 3d30 243f 0266 153f b185 cd3e 6a4b 1d3f
00000010: 1256 523f 925c 743e 5468 993e f18c 093f

l2.weight f4 [8, 8]
0.80838346 -0.017822055 0.23273285 -0.60347813 -0.41972217 0.8258024 0.38965768 0.5597008
1.0215828 0.8330611 0.38953444 -0.033638343 -0.9817812 0.48789215 0.92950124 0.24766877
0.011426145 0.4168243 0.49867913 0.2436225 -0.7167431 0.8554187 -0.6061715 -0.29156563
0.94807714 0.95686084 -0.57650435 1.4900786 -0.26911893 -0.91475624 -0.27474317 0.15285109
-0.04850386 0.8445076 1.0654054 -0.72263926 0.77605546 0.68607575 -0.73004633 -0.2990693
0.20665853 -0.33312663 0.32433295 -0.3380592 1.3570824 -0.44096223 1.1225502 1.1477139
0.92015386 1.2020494 0.84627956 -0.47034493 0.59342474 -0.761423 -0.20843652 -0.45115298
0.72351456 -1.0072031 -0.3249135 0.6742054 0.5434514 -0.35567176 1.2050658 1.271451
00000000: 38f2 4e3f 8fff 91bc 8551 6e3e 8b7d 1abf
00000010: d3e5 d6be c967 533f 3681 c73e 8d48 0f3f
00000020: 3ac3 823f 7e43 553f 0f71 c73e 5cc8 09bd
00000030: 0356 7bbf 00cd f93e cbf3 6d3f e29c 7d3e
00000040: ba34 3b3c ff69 d53e df52 ff3e 2d78 793e
00000050: 7a7c 37bf b8fc 5a3f 0e2e 1bbf 1748 95be
00000060: 2fb5 723f d5f4 743f ca95 13bf e5ba be3f
00000070: f5c9 89be 772d 6abf 23ab 8cbe ff84 1c3e
00000080: fcab 46bd a631 583f 345f 883f e3fe 38bf
00000090: 92ab 463f a9a2 2f3f 51e4 3abf 9c1f 99be
000000a0: 4b9e 533e 938f aabe f80e a63e 1816 adbe
000000b0: e0b4 ad3f cdc5 e1be baaf 8f3f 4ae8 923f
000000c0: 348f 6b3f c1dc 993f c7a5 583f 0dd1 f0be
000000d0: afea 173f 9eec 42bf 6270 55be 86fd e6be
000000e0: 4038 393f 08ec 80bf 105b a6be ba98 2c3f
000000f0: a21f 0b3f 9c1a b6be 993f 9a3f e8be a23f

l2.bias f4 [8]
0.14677614 -0.2661705 -0.08256938 0.7149666 0.45034203 0.49253088 0.10884656 0.3935573
00000000: 7c4c 163e 8047 88be 231a a9bd 0d08 373f
00000010: 3b93 e63e 022d fc3e f2ea de3d 5880 c93e

l3.weight f4 [7, 8]
-0.17275019 -1.2789434 -0.45327052 -1.5309675 -1.0875071 0.8470552 -0.7555065 0.78941727
0.6503344 0.64497954 0.47102952 -1.1723137 0.58461463 -0.85783046 -0.38228586 -0.6695754
-1.0351853 -1.4707551 -0.18969159 0.81144845 -0.75757545 0.25262216 -1.1723064 0.69792217
-0.9681423 -0.6794455 -1.077699 -0.7201192 0.94319636 0.44200847 0.9038755 -0.87995905
-0.33473608 0.42935646 0.24493107 0.50385004 -0.6866167 -1.3115296 0.5898936 -0.95478404
0.83326256 -0.12021859 -0.69618773 -1.2745196 -0.14807044 0.34144965 0.21935485 0.3290158
0.6198274 0.66537315 -1.3480333 0.025148971 -1.519495 -0.19650114 0.26838008 0.22083685
00000000: 6de5 30be 6bb4 a3bf 1313 e8be bef6 c3bf
00000010: 6f33 8bbf 9cd8 583f e068 41bf 4017 4a3f
00000020: 517c 263f 611d 253f c82a f13e 600e 96bf
00000030: 4ea9 153f c79a 5bbf f9ba c3be 4b69 2bbf
00000040: f480 84bf b441 bcbf 833e 42be 16bb 4f3f
00000050: 77f0 41bf b157 813e 230e 96bf 07ab 323f
00000060: 2cd8 77bf 24f0 2dbf 0af2 89bf bb59 38bf
00000070: 5175 713f ef4e e23e 6364 673f ff44 61bf
00000080: 8762 abbe 9cd4 db3e 36cf 7a3e 51fc 003f
00000090: 1dc6 2fbf 34e0 a7bf 4403 173f ba6c 74bf
000000a0: b250 553f 2a35 f6bd 5c39 32bf 7523 a3bf
000000b0: c79f 17be 7dd2 ae3e 8f9e 603e c274 a83e
000000c0: 02ad 1e3f e555 2a3f 5b8c acbf 3705 ce3c
000000d0: d07e c2bf 9837 49be 1d69 893e 0e23 623e

l3.bias f4 [7]
-0.2305087 -0.10780257 0.48590577 0.21502285 -0.021351095 -0.13491057 -0.28881896
00000000: 790a 6cbe 98c7 dcbd a4c8 f83e f32e 5c3e
00000010: 7ee8 aebc ff25 0abe 14e0 93be
